…
2021-09-09 01:32:28,950 - Distmult_cross_K2_D200_09_09_2021_01:32:24 - [INFO] - valid_head num is 17535
2021-09-09 01:32:28,950 - Distmult_cross_K2_D200_09_09_2021_01:32:24 - [INFO] - num_ent 14541 num_rel 237

2021-09-09 01:32:28,951 - Distmult_cross_K2_D200_09_09_2021_01:32:24 - [INFO] - train set num is 149689

2021-09-09 01:32:28,951 - Distmult_cross_K2_D200_09_09_2021_01:32:24 - [INFO] - test_tail num is 20466

2021-09-09 01:32:28,951 - Distmult_cross_K2_D200_09_09_2021_01:32:24 - [INFO] - valid_tail num is 17535

2021-09-09 01:33:08,100 - Distmult_cross_K2_D200_09_09_2021_01:32:24 - [INFO] - ModuleList(
  (0): CLUBSample(
    (p_mu): Sequential(
      (0): Linear(in_features=200, out_features=100, bias=True)
      (1): ReLU()
      (2): Linear(in_features=100, out_features=200, bias=True)
    )
    (p_logvar): Sequential(
      (0): Linear(in_features=200, out_features=100, bias=True)
      (1): ReLU()
      (2): Linear(in_features=100, out_features=200, bias=True)
      (3): Tanh()
    )
  )
)
2021-09-09 01:33:08,100 - Distmult_cross_K2_D200_09_09_2021_01:32:24 - [INFO] - CLUBSample(
  (p_mu): Sequential(
    (0): Linear(in_features=200, out_features=100, bias=True)
    (1): ReLU()
    (2): Linear(in_features=100, out_features=200, bias=True)
  )
  (p_logvar): Sequential(
    (0): Linear(in_features=200, out_features=100, bias=True)
    (1): ReLU()
    (2): Linear(in_features=100, out_features=200, bias=True)
    (3): Tanh()
  )
)
2021-09-09 01:33:08,101 - Distmult_cross_K2_D200_09_09_2021_01:32:24 - [INFO] - Sequential(
  (0): Linear(in_features=200, out_features=100, bias=True)
  (1): ReLU()
  (2): Linear(in_features=100, out_features=200, bias=True)
)
2021-09-09 01:33:08,102 - Distmult_cross_K2_D200_09_09_2021_01:32:24 - [INFO] - Linear(in_features=200, out_features=100, bias=True)
2021-09-09 01:33:08,102 - Distmult_cross_K2_D200_09_09_2021_01:32:24 - [INFO] - ReLU()
2021-09-09 01:33:08,102 - Distmult_cross_K2_D200_09_09_2021_01:32:24 - [INFO] - Linear(in_features=100, out_features=200, bias=True)
2021-09-09 01:33:08,103 - Distmult_cross_K2_D200_09_09_2021_01:32:24 - [INFO] - Sequential(
  (0): Linear(in_features=200, out_features=100, bias=True)
  (1): ReLU()
  (2): Linear(in_features=100, out_features=200, bias=True)
  (3): Tanh()
)
2021-09-09 01:33:08,103 - Distmult_cross_K2_D200_09_09_2021_01:32:24 - [INFO] - Linear(in_features=200, out_features=100, bias=True)
2021-09-09 01:33:08,103 - Distmult_cross_K2_D200_09_09_2021_01:32:24 - [INFO] - ReLU()
2021-09-09 01:33:08,104 - Distmult_cross_K2_D200_09_09_2021_01:32:24 - [INFO] - Linear(in_features=100, out_features=200, bias=True)
…
