…
2021-09-12 22:10:57,281 - InteractE_FB15k_K3_D200_club_b_mi_drop_12_09_2021_22:10:53 - [INFO] - num_ent 14541 num_rel 237

2021-09-12 22:10:57,281 - InteractE_FB15k_K3_D200_club_b_mi_drop_12_09_2021_22:10:53 - [INFO] - train set num is 149689

2021-09-12 22:10:57,281 - InteractE_FB15k_K3_D200_club_b_mi_drop_12_09_2021_22:10:53 - [INFO] - test_tail num is 20466

2021-09-12 22:10:57,282 - InteractE_FB15k_K3_D200_club_b_mi_drop_12_09_2021_22:10:53 - [INFO] - valid_tail num is 17535

2021-09-12 22:11:31,397 - InteractE_FB15k_K3_D200_club_b_mi_drop_12_09_2021_22:10:53 - [INFO] - ModuleList(
  (0): CLUBSample(
    (p_mu): Sequential(
      (0): Linear(in_features=200, out_features=100, bias=True)
      (1): ReLU()
      (2): Linear(in_features=100, out_features=200, bias=True)
    )
    (p_logvar): Sequential(
      (0): Linear(in_features=200, out_features=100, bias=True)
      (1): ReLU()
      (2): Linear(in_features=100, out_features=200, bias=True)
      (3): Tanh()
    )
  )
  (1): CLUBSample(
    (p_mu): Sequential(
      (0): Linear(in_features=200, out_features=100, bias=True)
      (1): ReLU()
      (2): Linear(in_features=100, out_features=200, bias=True)
    )
    (p_logvar): Sequential(
      (0): Linear(in_features=200, out_features=100, bias=True)
      (1): ReLU()
      (2): Linear(in_features=100, out_features=200, bias=True)
      (3): Tanh()
    )
  )
  (2): CLUBSample(
    (p_mu): Sequential(
      (0): Linear(in_features=200, out_features=100, bias=True)
      (1): ReLU()
      (2): Linear(in_features=100, out_features=200, bias=True)
    )
    (p_logvar): Sequential(
      (0): Linear(in_features=200, out_features=100, bias=True)
      (1): ReLU()
      (2): Linear(in_features=100, out_features=200, bias=True)
      (3): Tanh()
    )
  )
)
2021-09-12 22:11:31,398 - InteractE_FB15k_K3_D200_club_b_mi_drop_12_09_2021_22:10:53 - [INFO] - CLUBSample(
  (p_mu): Sequential(
    (0): Linear(in_features=200, out_features=100, bias=True)
    (1): ReLU()
    (2): Linear(in_features=100, out_features=200, bias=True)
  )
  (p_logvar): Sequential(
    (0): Linear(in_features=200, out_features=100, bias=True)
    (1): ReLU()
    (2): Linear(in_features=100, out_features=200, bias=True)
    (3): Tanh()
  )
)
2021-09-12 22:11:31,399 - InteractE_FB15k_K3_D200_club_b_mi_drop_12_09_2021_22:10:53 - [INFO] - Sequential(
  (0): Linear(in_features=200, out_features=100, bias=True)
  (1): ReLU()
  (2): Linear(in_features=100, out_features=200, bias=True)
)
2021-09-12 22:11:31,399 - InteractE_FB15k_K3_D200_club_b_mi_drop_12_09_2021_22:10:53 - [INFO] - Linear(in_features=200, out_features=100, bias=True)
2021-09-12 22:11:31,399 - InteractE_FB15k_K3_D200_club_b_mi_drop_12_09_2021_22:10:53 - [INFO] - ReLU()
2021-09-12 22:11:31,400 - InteractE_FB15k_K3_D200_club_b_mi_drop_12_09_2021_22:10:53 - [INFO] - Linear(in_features=100, out_features=200, bias=True)
2021-09-12 22:11:31,400 - InteractE_FB15k_K3_D200_club_b_mi_drop_12_09_2021_22:10:53 - [INFO] - Sequential(
  (0): Linear(in_features=200, out_features=100, bias=True)
  (1): ReLU()
  (2): Linear(in_features=100, out_features=200, bias=True)
  (3): Tanh()
)
2021-09-12 22:11:31,400 - InteractE_FB15k_K3_D200_club_b_mi_drop_12_09_2021_22:10:53 - [INFO] - Linear(in_features=200, out_features=100, bias=True)
2021-09-12 22:11:31,400 - InteractE_FB15k_K3_D200_club_b_mi_drop_12_09_2021_22:10:53 - [INFO] - ReLU()
2021-09-12 22:11:31,400 - InteractE_FB15k_K3_D200_club_b_mi_drop_12_09_2021_22:10:53 - [INFO] - Linear(in_features=100, out_features=200, bias=True)
2021-09-12 22:11:31,401 - InteractE_FB15k_K3_D200_club_b_mi_drop_12_09_2021_22:10:53 - [INFO] - Tanh()
2021-09-12 22:11:31,401 - InteractE_FB15k_K3_D200_club_b_mi_drop_12_09_2021_22:10:53 - [INFO] - CLUBSample(
  (p_mu): Sequential(
    (0): Linear(in_features=200, out_features=100, bias=True)
    (1): ReLU()
    (2): Linear(in_features=100, out_features=200, bias=True)
  )
  (p_logvar): Sequential(
    (0): Linear(in_features=200, out_features=100, bias=True)
    (1): ReLU()
    (2): Linear(in_features=100, out_features=200, bias=True)
    (3): Tanh()
  )
)
2021-09-12 22:11:31,401 - InteractE_FB15k_K3_D200_club_b_mi_drop_12_09_2021_22:10:53 - [INFO] - Sequential(
  (0): Linear(in_features=200, out_features=100, bias=True)
  (1): ReLU()
  (2): Linear(in_features=100, out_features=200, bias=True)
)
2021-09-12 22:11:31,401 - InteractE_FB15k_K3_D200_club_b_mi_drop_12_09_2021_22:10:53 - [INFO] - Linear(in_features=200, out_features=100, bias=True)
2021-09-12 22:11:31,402 - InteractE_FB15k_K3_D200_club_b_mi_drop_12_09_2021_22:10:53 - [INFO] - ReLU()
2021-09-12 22:11:31,402 - InteractE_FB15k_K3_D200_club_b_mi_drop_12_09_2021_22:10:53 - [INFO] - Linear(in_features=100, out_features=200, bias=True)
2021-09-12 22:11:31,402 - InteractE_FB15k_K3_D200_club_b_mi_drop_12_09_2021_22:10:53 - [INFO] - Sequential(
  (0): Linear(in_features=200, out_features=100, bias=True)
  (1): ReLU()
  (2): Linear(in_features=100, out_features=200, bias=True)
  (3): Tanh()
)
2021-09-12 22:11:31,402 - InteractE_FB15k_K3_D200_club_b_mi_drop_12_09_2021_22:10:53 - [INFO] - Linear(in_features=200, out_features=100, bias=True)
2021-09-12 22:11:31,403 - InteractE_FB15k_K3_D200_club_b_mi_drop_12_09_2021_22:10:53 - [INFO] - ReLU()
2021-09-12 22:11:31,403 - InteractE_FB15k_K3_D200_club_b_mi_drop_12_09_2021_22:10:53 - [INFO] - Linear(in_features=100, out_features=200, bias=True)
2021-09-12 22:11:31,403 - InteractE_FB15k_K3_D200_club_b_mi_drop_12_09_2021_22:10:53 - [INFO] - Tanh()
2021-09-12 22:11:31,403 - InteractE_FB15k_K3_D200_club_b_mi_drop_12_09_2021_22:10:53 - [INFO] - CLUBSample(
  (p_mu): Sequential(
    (0): Linear(in_features=200, out_features=100, bias=True)
    (1): ReLU()
    (2): Linear(in_features=100, out_features=200, bias=True)
  )
  (p_logvar): Sequential(
    (0): Linear(in_features=200, out_features=100, bias=True)
    (1): ReLU()
    (2): Linear(in_features=100, out_features=200, bias=True)
    (3): Tanh()
  )
)
2021-09-12 22:11:31,404 - InteractE_FB15k_K3_D200_club_b_mi_drop_12_09_2021_22:10:53 - [INFO] - Sequential(
  (0): Linear(in_features=200, out_features=100, bias=True)
  (1): ReLU()
  (2): Linear(in_features=100, out_features=200, bias=True)
)
2021-09-12 22:11:31,404 - InteractE_FB15k_K3_D200_club_b_mi_drop_12_09_2021_22:10:53 - [INFO] - Linear(in_features=200, out_features=100, bias=True)
2021-09-12 22:11:31,404 - InteractE_FB15k_K3_D200_club_b_mi_drop_12_09_2021_22:10:53 - [INFO] - ReLU()
2021-09-12 22:11:31,404 - InteractE_FB15k_K3_D200_club_b_mi_drop_12_09_2021_22:10:53 - [INFO] - Linear(in_features=100, out_features=200, bias=True)
2021-09-12 22:11:31,404 - InteractE_FB15k_K3_D200_club_b_mi_drop_12_09_2021_22:10:53 - [INFO] - Sequential(
  (0): Linear(in_features=200, out_features=100, bias=True)
  (1): ReLU()
  (2): Linear(in_features=100, out_features=200, bias=True)
  (3): Tanh()
)
2021-09-12 22:11:31,405 - InteractE_FB15k_K3_D200_club_b_mi_drop_12_09_2021_22:10:53 - [INFO] - Linear(in_features=200, out_features=100, bias=True)
2021-09-12 22:11:31,405 - InteractE_FB15k_K3_D200_club_b_mi_drop_12_09_2021_22:10:53 - [INFO] - ReLU()
2021-09-12 22:11:31,405 - InteractE_FB15k_K3_D200_club_b_mi_drop_12_09_2021_22:10:53 - [INFO] - Linear(in_features=100, out_features=200, bias=True)
…
