…
2021-09-09 01:55:08,582 - Mult_InteractE_FB15k_K2_D200_club_b_mi_drop_09_09_2021_01:55:04 - [INFO] - num_ent 14541 num_rel 237

2021-09-09 01:55:08,582 - Mult_InteractE_FB15k_K2_D200_club_b_mi_drop_09_09_2021_01:55:04 - [INFO] - train set num is 149689

2021-09-09 01:55:08,582 - Mult_InteractE_FB15k_K2_D200_club_b_mi_drop_09_09_2021_01:55:04 - [INFO] - test_tail num is 20466

2021-09-09 01:55:08,582 - Mult_InteractE_FB15k_K2_D200_club_b_mi_drop_09_09_2021_01:55:04 - [INFO] - valid_tail num is 17535

2021-09-09 01:55:46,301 - Mult_InteractE_FB15k_K2_D200_club_b_mi_drop_09_09_2021_01:55:04 - [INFO] - ModuleList(
  (0): CLUBSample(
    (p_mu): Sequential(
      (0): Linear(in_features=200, out_features=100, bias=True)
      (1): ReLU()
      (2): Linear(in_features=100, out_features=200, bias=True)
    )
    (p_logvar): Sequential(
      (0): Linear(in_features=200, out_features=100, bias=True)
      (1): ReLU()
      (2): Linear(in_features=100, out_features=200, bias=True)
      (3): Tanh()
    )
  )
)
2021-09-09 01:55:46,302 - Mult_InteractE_FB15k_K2_D200_club_b_mi_drop_09_09_2021_01:55:04 - [INFO] - CLUBSample(
  (p_mu): Sequential(
    (0): Linear(in_features=200, out_features=100, bias=True)
    (1): ReLU()
    (2): Linear(in_features=100, out_features=200, bias=True)
  )
  (p_logvar): Sequential(
    (0): Linear(in_features=200, out_features=100, bias=True)
    (1): ReLU()
    (2): Linear(in_features=100, out_features=200, bias=True)
    (3): Tanh()
  )
)
2021-09-09 01:55:46,303 - Mult_InteractE_FB15k_K2_D200_club_b_mi_drop_09_09_2021_01:55:04 - [INFO] - Sequential(
  (0): Linear(in_features=200, out_features=100, bias=True)
  (1): ReLU()
  (2): Linear(in_features=100, out_features=200, bias=True)
)
2021-09-09 01:55:46,303 - Mult_InteractE_FB15k_K2_D200_club_b_mi_drop_09_09_2021_01:55:04 - [INFO] - Linear(in_features=200, out_features=100, bias=True)
2021-09-09 01:55:46,303 - Mult_InteractE_FB15k_K2_D200_club_b_mi_drop_09_09_2021_01:55:04 - [INFO] - ReLU()
2021-09-09 01:55:46,303 - Mult_InteractE_FB15k_K2_D200_club_b_mi_drop_09_09_2021_01:55:04 - [INFO] - Linear(in_features=100, out_features=200, bias=True)
2021-09-09 01:55:46,304 - Mult_InteractE_FB15k_K2_D200_club_b_mi_drop_09_09_2021_01:55:04 - [INFO] - Sequential(
  (0): Linear(in_features=200, out_features=100, bias=True)
  (1): ReLU()
  (2): Linear(in_features=100, out_features=200, bias=True)
  (3): Tanh()
)
2021-09-09 01:55:46,304 - Mult_InteractE_FB15k_K2_D200_club_b_mi_drop_09_09_2021_01:55:04 - [INFO] - Linear(in_features=200, out_features=100, bias=True)
2021-09-09 01:55:46,304 - Mult_InteractE_FB15k_K2_D200_club_b_mi_drop_09_09_2021_01:55:04 - [INFO] - ReLU()
2021-09-09 01:55:46,304 - Mult_InteractE_FB15k_K2_D200_club_b_mi_drop_09_09_2021_01:55:04 - [INFO] - Linear(in_features=100, out_features=200, bias=True)
…
