…
2021-09-12 22:14:20,682 - TransE_mult_K2_D200_12_09_2021_22:14:16 - [INFO] - valid_head num is 17535
2021-09-12 22:14:20,683 - TransE_mult_K2_D200_12_09_2021_22:14:16 - [INFO] - num_ent 14541 num_rel 237

2021-09-12 22:14:20,683 - TransE_mult_K2_D200_12_09_2021_22:14:16 - [INFO] - train set num is 149689

2021-09-12 22:14:20,683 - TransE_mult_K2_D200_12_09_2021_22:14:16 - [INFO] - test_tail num is 20466

2021-09-12 22:14:20,684 - TransE_mult_K2_D200_12_09_2021_22:14:16 - [INFO] - valid_tail num is 17535

2021-09-12 22:14:58,969 - TransE_mult_K2_D200_12_09_2021_22:14:16 - [INFO] - ModuleList(
  (0): CLUBSample(
    (p_mu): Sequential(
      (0): Linear(in_features=200, out_features=100, bias=True)
      (1): ReLU()
      (2): Linear(in_features=100, out_features=200, bias=True)
    )
    (p_logvar): Sequential(
      (0): Linear(in_features=200, out_features=100, bias=True)
      (1): ReLU()
      (2): Linear(in_features=100, out_features=200, bias=True)
      (3): Tanh()
    )
  )
)
2021-09-12 22:14:58,969 - TransE_mult_K2_D200_12_09_2021_22:14:16 - [INFO] - CLUBSample(
  (p_mu): Sequential(
    (0): Linear(in_features=200, out_features=100, bias=True)
    (1): ReLU()
    (2): Linear(in_features=100, out_features=200, bias=True)
  )
  (p_logvar): Sequential(
    (0): Linear(in_features=200, out_features=100, bias=True)
    (1): ReLU()
    (2): Linear(in_features=100, out_features=200, bias=True)
    (3): Tanh()
  )
)
2021-09-12 22:14:58,970 - TransE_mult_K2_D200_12_09_2021_22:14:16 - [INFO] - Sequential(
  (0): Linear(in_features=200, out_features=100, bias=True)
  (1): ReLU()
  (2): Linear(in_features=100, out_features=200, bias=True)
)
2021-09-12 22:14:58,970 - TransE_mult_K2_D200_12_09_2021_22:14:16 - [INFO] - Linear(in_features=200, out_features=100, bias=True)
2021-09-12 22:14:58,970 - TransE_mult_K2_D200_12_09_2021_22:14:16 - [INFO] - ReLU()
2021-09-12 22:14:58,971 - TransE_mult_K2_D200_12_09_2021_22:14:16 - [INFO] - Linear(in_features=100, out_features=200, bias=True)
2021-09-12 22:14:58,971 - TransE_mult_K2_D200_12_09_2021_22:14:16 - [INFO] - Sequential(
  (0): Linear(in_features=200, out_features=100, bias=True)
  (1): ReLU()
  (2): Linear(in_features=100, out_features=200, bias=True)
  (3): Tanh()
)
2021-09-12 22:14:58,971 - TransE_mult_K2_D200_12_09_2021_22:14:16 - [INFO] - Linear(in_features=200, out_features=100, bias=True)
2021-09-12 22:14:58,972 - TransE_mult_K2_D200_12_09_2021_22:14:16 - [INFO] - ReLU()
2021-09-12 22:14:58,972 - TransE_mult_K2_D200_12_09_2021_22:14:16 - [INFO] - Linear(in_features=100, out_features=200, bias=True)
…
