…
2021-09-09 01:10:44,109 - TransE_sub_K2_D200_09_09_2021_01:10:39 - [INFO] - valid_head num is 17535
2021-09-09 01:10:44,110 - TransE_sub_K2_D200_09_09_2021_01:10:39 - [INFO] - num_ent 14541 num_rel 237

2021-09-09 01:10:44,110 - TransE_sub_K2_D200_09_09_2021_01:10:39 - [INFO] - train set num is 149689

2021-09-09 01:10:44,110 - TransE_sub_K2_D200_09_09_2021_01:10:39 - [INFO] - test_tail num is 20466

2021-09-09 01:10:44,110 - TransE_sub_K2_D200_09_09_2021_01:10:39 - [INFO] - valid_tail num is 17535

2021-09-09 01:11:20,091 - TransE_sub_K2_D200_09_09_2021_01:10:39 - [INFO] - ModuleList(
  (0): CLUBSample(
    (p_mu): Sequential(
      (0): Linear(in_features=200, out_features=100, bias=True)
      (1): ReLU()
      (2): Linear(in_features=100, out_features=200, bias=True)
    )
    (p_logvar): Sequential(
      (0): Linear(in_features=200, out_features=100, bias=True)
      (1): ReLU()
      (2): Linear(in_features=100, out_features=200, bias=True)
      (3): Tanh()
    )
  )
)
2021-09-09 01:11:20,092 - TransE_sub_K2_D200_09_09_2021_01:10:39 - [INFO] - CLUBSample(
  (p_mu): Sequential(
    (0): Linear(in_features=200, out_features=100, bias=True)
    (1): ReLU()
    (2): Linear(in_features=100, out_features=200, bias=True)
  )
  (p_logvar): Sequential(
    (0): Linear(in_features=200, out_features=100, bias=True)
    (1): ReLU()
    (2): Linear(in_features=100, out_features=200, bias=True)
    (3): Tanh()
  )
)
2021-09-09 01:11:20,093 - TransE_sub_K2_D200_09_09_2021_01:10:39 - [INFO] - Sequential(
  (0): Linear(in_features=200, out_features=100, bias=True)
  (1): ReLU()
  (2): Linear(in_features=100, out_features=200, bias=True)
)
2021-09-09 01:11:20,093 - TransE_sub_K2_D200_09_09_2021_01:10:39 - [INFO] - Linear(in_features=200, out_features=100, bias=True)
2021-09-09 01:11:20,093 - TransE_sub_K2_D200_09_09_2021_01:10:39 - [INFO] - ReLU()
2021-09-09 01:11:20,093 - TransE_sub_K2_D200_09_09_2021_01:10:39 - [INFO] - Linear(in_features=100, out_features=200, bias=True)
2021-09-09 01:11:20,094 - TransE_sub_K2_D200_09_09_2021_01:10:39 - [INFO] - Sequential(
  (0): Linear(in_features=200, out_features=100, bias=True)
  (1): ReLU()
  (2): Linear(in_features=100, out_features=200, bias=True)
  (3): Tanh()
)
2021-09-09 01:11:20,094 - TransE_sub_K2_D200_09_09_2021_01:10:39 - [INFO] - Linear(in_features=200, out_features=100, bias=True)
2021-09-09 01:11:20,094 - TransE_sub_K2_D200_09_09_2021_01:10:39 - [INFO] - ReLU()
2021-09-09 01:11:20,094 - TransE_sub_K2_D200_09_09_2021_01:10:39 - [INFO] - Linear(in_features=100, out_features=200, bias=True)
…
