…
2021-09-12 22:20:47,981 - TransE_cross_K2_D200_12_09_2021_22:20:44 - [INFO] - valid_head num is 17535
2021-09-12 22:20:47,982 - TransE_cross_K2_D200_12_09_2021_22:20:44 - [INFO] - num_ent 14541 num_rel 237

2021-09-12 22:20:47,982 - TransE_cross_K2_D200_12_09_2021_22:20:44 - [INFO] - train set num is 149689

2021-09-12 22:20:47,982 - TransE_cross_K2_D200_12_09_2021_22:20:44 - [INFO] - test_tail num is 20466

2021-09-12 22:20:47,982 - TransE_cross_K2_D200_12_09_2021_22:20:44 - [INFO] - valid_tail num is 17535

2021-09-12 22:21:20,998 - TransE_cross_K2_D200_12_09_2021_22:20:44 - [INFO] - ModuleList(
  (0): CLUBSample(
    (p_mu): Sequential(
      (0): Linear(in_features=200, out_features=100, bias=True)
      (1): ReLU()
      (2): Linear(in_features=100, out_features=200, bias=True)
    )
    (p_logvar): Sequential(
      (0): Linear(in_features=200, out_features=100, bias=True)
      (1): ReLU()
      (2): Linear(in_features=100, out_features=200, bias=True)
      (3): Tanh()
    )
  )
)
2021-09-12 22:21:20,999 - TransE_cross_K2_D200_12_09_2021_22:20:44 - [INFO] - CLUBSample(
  (p_mu): Sequential(
    (0): Linear(in_features=200, out_features=100, bias=True)
    (1): ReLU()
    (2): Linear(in_features=100, out_features=200, bias=True)
  )
  (p_logvar): Sequential(
    (0): Linear(in_features=200, out_features=100, bias=True)
    (1): ReLU()
    (2): Linear(in_features=100, out_features=200, bias=True)
    (3): Tanh()
  )
)
2021-09-12 22:21:20,999 - TransE_cross_K2_D200_12_09_2021_22:20:44 - [INFO] - Sequential(
  (0): Linear(in_features=200, out_features=100, bias=True)
  (1): ReLU()
  (2): Linear(in_features=100, out_features=200, bias=True)
)
2021-09-12 22:21:21,000 - TransE_cross_K2_D200_12_09_2021_22:20:44 - [INFO] - Linear(in_features=200, out_features=100, bias=True)
2021-09-12 22:21:21,000 - TransE_cross_K2_D200_12_09_2021_22:20:44 - [INFO] - ReLU()
2021-09-12 22:21:21,000 - TransE_cross_K2_D200_12_09_2021_22:20:44 - [INFO] - Linear(in_features=100, out_features=200, bias=True)
2021-09-12 22:21:21,001 - TransE_cross_K2_D200_12_09_2021_22:20:44 - [INFO] - Sequential(
  (0): Linear(in_features=200, out_features=100, bias=True)
  (1): ReLU()
  (2): Linear(in_features=100, out_features=200, bias=True)
  (3): Tanh()
)
2021-09-12 22:21:21,001 - TransE_cross_K2_D200_12_09_2021_22:20:44 - [INFO] - Linear(in_features=200, out_features=100, bias=True)
2021-09-12 22:21:21,001 - TransE_cross_K2_D200_12_09_2021_22:20:44 - [INFO] - ReLU()
2021-09-12 22:21:21,001 - TransE_cross_K2_D200_12_09_2021_22:20:44 - [INFO] - Linear(in_features=100, out_features=200, bias=True)
…
